artifacts/models/fraud_autoencoder.pt (torch, 4569 bytes, 8 tensors)

encoder.0.weight f4 [8, 7]
00000000: fb95 df3c b18f 583d 4043 043f b3a8 b53e
00000010: 5bca b03e 0626 f8be bf8b 26bf e99b 683d
00000020: 285d d93e faf3 e1be af7b 87be 7bcd 413f
00000030: ff9f d73e a43d a6bd bfab c93e ee72 a33e
00000040: 7a47 983d 5f05 8bbe 81f0 37be a79e 9e3e
00000050: 3fb2 4dbe 0b18 193d 0d08 c4be e456 18be
00000060: 2d73 203f 5378 f4bd d146 d5be 4ca6 9b3e
00000070: 323c 1fbc ce95 d8be 08b1 e1be 9270 f63d
00000080: 345c 023d fab1 e03e eda0 10be 3124 cc3d
00000090: dddf 3c3f 8518 0d3f aa25 97bd 698c b0be
000000a0: e909 0e3f 72cd 90bd aa6c 803b 8f6b 3e3f
000000b0: 5a85 49bd 99bb c13d 32da c6be e70c d43c
000000c0: fcbe a93e 252c 71bc 00d7 fa3e 6c5b 94be
000000d0: 1123 c1be cb36 573e 91fb c0be 44eb e93e
0.027293196 0.05287141 0.51665115 0.3548027 0.34529385 -0.4846651 -0.65056986 0.056789313
0.42453885 -0.44131452 -0.2646155 0.75704163 0.42114255 -0.08117226 0.39388844 0.31923622
0.07435508 -0.27152535 -0.17962839 0.30980417 -0.20087527 0.037376445 -0.38287392 -0.14876896
0.62675744 -0.119370125 -0.4165559 0.30400312 -0.0097189415 -0.42301792 -0.44080377 0.1203319
0.031826213 0.43885785 -0.14123888 0.099678405 0.7377909 0.5511554 -0.07380231 -0.34482124
0.5548387 -0.070704356 0.0039192038 0.7438287 -0.04919944 0.094596095 -0.38838345 0.025885059
0.33153522 -0.0147199975 0.48992157 -0.28976 -0.37722066 0.21016996 -0.3769193 0.45687306

encoder.0.bias f4 [8]
00000000: 2d3a 263f 9444 f53e 9ac2 a2be 667f d53e
00000010: 9711 d53e d124 b13e 21dc cb3e d16e b93e
0.6493252 0.47903883 -0.31789094 0.4169876 0.41614982 0.345984 0.39816383 0.3621736

encoder.2.weight f4 [4, 8]
00000000: c774 933e f4c7 4cbe df9e 3cbe 1beb e6bd
00000010: af29 293f ad57 3d3f fd27 9f3e 6dbf 19bf
00000020: d838 503f 6d53 5f3e 2031 713e 1472 ae3e
00000030: 8eb3 a03e ce79 dabd 1c8e 2dbf 6742 8cbe
00000040: 0bfe 0e3f 6bd6 c6be 892b b4ba 27ee 11bf
00000050: a289 7cbe 4231 e53e 2cfd ca3e a3f6 d9bc
00000060: 5f4d 933c 9c6c 5c3f a646 13bc 6e86 30bf
00000070: c965 52bd ded1 ef3e d86c 003e 55fc f13e
0.28800032 -0.19998151 -0.1841998 -0.112753116 0.6607923 0.7396191 0.31085196 -0.6005772
0.81336737 0.21809168 0.23553896 0.3407141 0.3138699 -0.10667764 -0.67794967 -0.2739441
0.5585639 -0.38835463 -0.0013745885 -0.57004017 -0.24661878 0.44764143 0.3964628 -0.026606863
0.01798123 0.86103225 -0.008989012 -0.68955123 -0.0513666 0.46839803 0.1254152 0.47262827

encoder.2.bias f4 [4]
00000000: db4b 553d 758b a83e 7206 633e 166b b53e
0.052074295 0.32918897 0.22170427 0.35433263

decoder.0.weight f4 [8, 4]
00000000: 43a2 d9be 1335 1d3f a971 41bf 7eb3 cc3e
00000010: 0e4c 02bd 57fc 2b3f 9d25 16bf d05b 3cbf
00000020: 9b64 61bf 8fa3 35bf b92e 5fbe 268e 333f
00000030: 461c cabc ff5a 0f3d 5096 13bf cdde 453f
00000040: a0ad c0bd 932d 213e d240 563f 83e3 9d3e
00000050: 0b69 14bd 061e dcbe 2d33 ce3e 598e 003f
00000060: 4218 c63e 506a cdbd 30c2 603d 2ce8 4ebe
00000070: 4499 99be bc42 25be a887 7a3e a405 c4be
-0.42506608 0.6140911 -0.75564057 0.39980692 -0.031810813 0.67181915 -0.58651143 -0.73577595
-0.88044137 -0.70952696 -0.21795167 0.70138776 -0.024671685 0.03499889 -0.57651234 0.7729309
-0.09408116 0.15740041 0.8369266 0.3083764 -0.03623299 -0.42991656 0.4027342 0.50217205
0.38690382 -0.10030043 0.05487269 -0.20205754 -0.29999745 -0.16138738 0.24465811 -0.38285553

decoder.0.bias f4 [8]
00000000: e316 aabe 027e 213f 6404 073f 802e 173e
00000010: 1fb4 35bd 680e ccbe 90df f0be 9add c2be
-0.33220586 0.630829 0.52741075 0.14763832 -0.04436123 -0.3985474 -0.47045565 -0.38059694

decoder.2.weight f4 [7, 8]
00000000: 71fe 60bd dcca 4abc d5fd 85bd ee3c 653d
00000010: cf33 913c 2b43 b1bc 4e9c acbe 0ff5 8a3e
00000020: ba94 01bd 8160 233e 590e 6a3e 76ad 77bc
00000030: d9e6 603e 2fac 1d3f 712a a33e a25d 463e
00000040: 48ee f23d ef74 a4be 8f3a cdbb 6a7a e1be
00000050: 4db0 193f 0a62 11bf eee1 1b3e 114d 45be
00000060: 3195 9bbe 6a9e 3b3f bd66 1cbd 0997 a2bc
00000070: 7656 0bbd 1cda a13d a84a 6cbd f857 24be
00000080: fb6a 2c3f bf7c 1a3e 9262 b33d d401 2f3e
00000090: 8d7a 573e c244 9cbe 40c6 343c 4516 b43e
000000a0: 6248 4bbf 2e86 3abb aba7 28bf 32f7 6e3f
000000b0: d44b 703b d4ea 86be a465 fdbd fd7d b13e
000000c0: 8227 02bf 35d5 1abd ee04 483f b73d 113e
000000d0: d9f4 57bd 45ab 6fbf dcc5 eb3d 28af 14bd
-0.054930154 -0.012377467 -0.06542555 0.05596631 0.0177249 -0.021638473 -0.33713 0.2714009
-0.031635977 0.15954782 0.22857036 -0.01511704 0.21963061 0.61590856 0.31868318 0.19371656
0.11861855 -0.32120463 -0.0062630842 -0.44038707 0.6003464 -0.5679022 0.15222904 -0.1926768
-0.30387262 0.73288596 -0.038183916 -0.01984741 -0.034018002 0.07902929 -0.057688385 -0.16049182
0.6735074 0.1508665 0.08759035 0.17090541 0.21042843 -0.30521208 0.011033595 0.3517324
-0.7940732 -0.0028461325 -0.6588084 0.9334594 0.003666629 -0.26351035 -0.12372902 0.34666434
-0.50841534 -0.037800986 0.7813252 0.14183699 -0.05272374 -0.9362071 0.11512348 -0.036299855

decoder.2.bias f4 [7]
00000000: 5d8c 133d d521 92be cb74 733e c340 e23c
00000010: 42d4 8bbe 1254 23bb 0135 883d
0.036022533 -0.28541437 0.23775022 0.027618771 -0.27310377 -0.0024921936 0.06650735
