models/fraud_autoencoder.pt (torch, 23961 bytes, 8 tensors)

encoder.0.weight f4 [64, 6]
0	0xbdfb564e	-0.12272321
1	0x3eaeeb4d	0.34163895
2	0xbc438602	-0.011933805
3	0xbea29307	-0.31752798
4	0x3c543aa4	0.012953434
5	0x3e6b6d6c	0.2299096
6	0x3e809990	0.2511716
7	0xbdfc11f5	-0.123081125
8	0xbdf9b116	-0.121919796
9	0x3ed76bd9	0.4207447
10	0x3e805822	0.2506724
11	0x3ea0da8e	0.31416744
12	0x3e8aa80f	0.27081344
13	0x3d95c0f1	0.07312191
14	0xbe78a68f	-0.24282287
15	0xbebb9146	-0.36634272
16	0x3d5c97aa	0.053855576
17	0x3e8e887b	0.278385
18	0xbd01bab4	-0.031672195
19	0xbe98812c	-0.2978605
20	0x3e69cd2f	0.22832178
21	0x3d962b2b	0.073324524
22	0x3e8d8745	0.27642265
23	0x3e4bd437	0.19905172
24	0x3e9184a3	0.28421506
25	0xbe9efcd9	-0.31052282
26	0xbd2e1008	-0.042495757
27	0x3e067082	0.13128856
28	0xbd814edc	-0.06313869
29	0x3e3135d0	0.17305684
30	0xbe3e682f	-0.1859443
31	0xbd9cd979	-0.07658667
32	0x3db3b665	0.08775023
33	0xbd984430	-0.07434881
34	0xbe9766b1	-0.29570535
35	0xbec6b1c6	-0.38807505
36	0xbdb0da06	-0.08635335
37	0x3ed47d43	0.41501817
38	0xbd94a6ab	-0.07258352
39	0x3ebc7f3a	0.36815816
40	0x3de074e0	0.10959792
41	0xbe2eef29	-0.1708342
42	0x3edcbbd4	0.4311205
43	0x3ea6cf1b	0.32579884
44	0xbea6b249	-0.32557896
45	0x3ea462f8	0.32106757
46	0xbe26e23a	-0.16297236
47	0xbe5f434d	-0.21803017
48	0x3eb822e0	0.35964108
49	0xbeb51d52	-0.35373932
50	0xbea79d87	-0.3273737
51	0xbce883d9	-0.028383182
52	0x3e971019	0.2950447
53	0x3e91da32	0.28486782
54	0xbeb87c89	-0.36032513
55	0x3ee30684	0.4434091
56	0xbe127708	-0.1430322
57	0xbdb33d03	-0.087518714
58	0xbeaf560e	-0.34245342
59	0x3eeb1602	0.45915228
60	0xbe3642fb	-0.17798989
61	0xbe1ce7b2	-0.1532276
62	0xbde6ddf4	-0.11272803
63	0x3e9c1228	0.30482602
64	0xbe33a0a8	-0.17541754
65	0xbd56e8b1	-0.052468006
66	0x3e8845ea	0.2661584
67	0xbb43d25e	-0.0029880027
68	0x3ea274d0	0.31729746
69	0xbd8e6bae	-0.06954132
70	0x3eb0eff6	0.34558076
71	0xbe7a16b8	-0.24422729
72	0x3b777f23	0.0037764988
73	0x3e578967	0.21048509
74	0xbe9535ed	-0.29142705
75	0x3eb4eb92	0.35335976
76	0xbd8ffc2c	-0.0703052
77	0x3dae6eef	0.08517253
78	0x3ed2fdf4	0.41209376
79	0x3e9bc62b	0.30424628
80	0xbe801cc5	-0.2502195
81	0x3e240eb0	0.16021228
82	0x3e49fbf4	0.19725019
83	0xbe3d850c	-0.18507785
84	0xbe11e30f	-0.14246772
85	0xbe69cb10	-0.22831368
86	0xbd546134	-0.051850513
87	0x3ebc2658	0.36748004
88	0xbe55b7c4	-0.20870882
89	0x3e99809a	0.29980928
90	0xbe5bb571	-0.21455933
91	0x3b399d78	0.0028322618
92	0xbebd8e2b	-0.37022528
93	0x3ea3d635	0.31999364
94	0xbebf0c2a	-0.37313968
95	0x3e99e7ef	0.30059764
96	0xbc5be008	-0.013420112
97	0x3e6c2d01	0.23064043
98	0x3e38f0ed	0.18060656
99	0xbe129f73	-0.14318638
100	0xbc9603f0	-0.018312424
101	0x3d1ad380	0.03779936
102	0x3d0fad13	0.035077166
103	0xbe764887	-0.24051104
104	0xbeb30b9e	-0.349698
105	0x3d4e984f	0.05043822
106	0x3d9246f0	0.071424365
107	0x3e06cf22	0.13164952
108	0xbe0723f6	-0.13197312
109	0x3eaae818	0.33380198
110	0x3e8d475e	0.2759351
111	0xbe35acc0	-0.1774168
112	0x3e7ffd30	0.24998927
113	0x3e0dd363	0.13850169
114	0x3edca915	0.4309775
115	0xbdf627a4	-0.120192796
116	0x3e2ac2d8	0.1667589
117	0x3c09f7d0	0.0084208995
118	0xbe870f50	-0.2637887
119	0x3df24a95	0.11830632
120	0xbeb63fd5	-0.35595575
121	0xbde7f9a6	-0.113269135
122	0xbe1acf10	-0.1511805
123	0xbe92ae45	-0.28648582
124	0xbe086abc	-0.13321966
125	0xbd999507	-0.07499128
126	0x3eb07bf9	0.34469584
127	0xbe1886ca	-0.14895168
128	0x3d3e7b94	0.046504572
129	0x3eb092a4	0.34486878
130	0xbe8e95d5	-0.27848688
131	0xbe15aa50	-0.1461575
132	0x3e7ec05c	0.24878067
133	0x3e98ae46	0.2982046
134	0xbe67a439	-0.2262124
135	0xbd407c62	-0.04699362
136	0x3e629aa6	0.22129306
137	0x3e657706	0.22408685
138	0xbda72f21	-0.08163286
139	0xbe853d38	-0.2602327
140	0x3e862e06	0.26206988
141	0x3ea4a674	0.32158244
142	0x3eb788b4	0.35846484
143	0x3d4a70b2	0.04942388
144	0xbea6a35e	-0.32546514
145	0x3dc32eaa	0.09530385
146	0x3e4a5395	0.19758447
147	0x3ec8a29b	0.39186558
148	0xbeceebc5	-0.40414253
149	0xbe96a921	-0.2942591
150	0xbeb564d3	-0.35428485
151	0xbe9d54eb	-0.3072885
152	0xbe8d6c18	-0.2762153
153	0xbec88c7f	-0.3916969
154	0xbed50bca	-0.41610557
155	0xbe6f6d00	-0.23381424
156	0xbe196c5d	-0.14982744
157	0xbee33701	-0.44377902
158	0xbcdb14b5	-0.026743272
159	0x3e7f8fa1	0.24957134
160	0x3ed237e5	0.4105827
161	0x3e0e9cb5	0.13926966
162	0x3e59a0e9	0.21252789
163	0x3d09bc0d	0.033626605
164	0xbe9e7e90	-0.30955935
165	0xbbdf9acf	-0.0068238745
166	0x3ec3605c	0.38159454
167	0x3e190f15	0.1494716
168	0x3d99e240	0.07513857
169	0xbe56313e	-0.20917222
170	0x3ed844a5	0.42239872
171	0x3e664861	0.22488548
172	0x3ed428ac	0.4143728
173	0xbebf5ad1	-0.37373975
174	0xbed27733	-0.41106567
175	0x3ecdd4ed	0.40201512
176	0xbe89f538	-0.269449
177	0x3dd47090	0.10373032
178	0x3dd226d2	0.10261311
179	0xbeac38f1	-0.33637193
180	0x3ebe527c	0.37172306
181	0x3e5a9139	0.2134446
182	0xbe5881e0	-0.21143293
183	0xbdab4eba	-0.08364625
184	0xbe7ee277	-0.24891077
185	0xbd002ac6	-0.031290792
186	0xbe4448fb	-0.19168465
187	0x3ec128e5	0.37726513
188	0xbe6f23ad	-0.23353453
189	0xbcd1c442	-0.025606278
190	0x3ea91739	0.3302553
191	0x3eb462e2	0.35231692
192	0xbdbbc181	-0.09167767
193	0x3ea5c8b8	0.323797
194	0x3e65af9a	0.22430268
195	0xbdc22fe7	-0.09481793
196	0x3dcd6d65	0.10030631
197	0xbea12b38	-0.31478286
198	0xbe1ddc6f	-0.1541612
199	0xbe37445d	-0.17897172
200	0xbe056d9b	-0.13030092
201	0xbe33ced0	-0.17559361
202	0x3e2487b2	0.16067389
203	0x3e990647	0.29887602
204	0xbe3bf304	-0.18354422
205	0xbdcd0183	-0.10010054
206	0x3e7d3e73	0.24730854
207	0xbe0bc771	-0.136503
208	0xbe30c9ec	-0.17264527
209	0x3dbbdc59	0.09172887
210	0xbd3c5621	-0.045980576
211	0x3be34182	0.0069352994
212	0x3ecc0095	0.39844194
213	0x3e098731	0.13430478
214	0xbde8b240	-0.113621235
215	0x3e8f1495	0.2794539
216	0xbea72170	-0.32642698
217	0x3ede8020	0.43457127
218	0xbd138907	-0.03601935
219	0xbe1319fc	-0.14365381
220	0x3de4b39e	0.11167072
221	0xbea9b82b	-0.33148322
222	0x3e9e0b97	0.30868217
223	0xbe4fece7	-0.20305215
224	0xbd81ab45	-0.06331495
225	0x3ed8c5ea	0.42338496
226	0x3d9aca42	0.07558109
227	0x3e5ed1dd	0.21759744
228	0x3deb4f49	0.11489732
229	0xbe8009f9	-0.2500761
230	0xbe43ad4e	-0.19109079
231	0x3d2a2bfb	0.04154585
232	0x3eb3d8c4	0.35126317
233	0x3c936005	0.017990122
234	0x3e0b944b	0.13630788
235	0x3dd7199f	0.10502934
236	0x3e6226ed	0.22085162
237	0x3e501cf3	0.20323543
238	0xbd2d60c0	-0.042328596
239	0xbe7a1ff9	-0.24426259
240	0x3ea953e9	0.3307183
241	0x3ebc95cb	0.36833033
242	0xbe926406	-0.28591937
243	0xbe208c18	-0.15678442
244	0xbe35638e	-0.17713758
245	0x3d64c231	0.055849258
246	0xbdb5bf6d	-0.08874402
247	0x3d525b9b	0.051356893
248	0x3e8e9d52	0.278544
249	0x3eae47f0	0.3403926
250	0x3e53da58	0.2068876
251	0xbe3d79c1	-0.18503477
252	0x3dbe670c	0.092969984
253	0x3e80f42f	0.25186297
254	0xbe7a3d36	-0.24437413
255	0xbe783859	-0.24240245

encoder.0.bias f4 [64]
0	0xbcc68f86	-0.02423836
1	0xbdcdb516	-0.10044305
2	0x3e25e771	0.16201569
3	0xbde5ea64	-0.11226347
4	0x3dec420a	0.115360335
5	0xbe628994	-0.22122794
6	0xbe0a8f50	-0.13531232
7	0x3e1c712e	0.1527755
8	0x3b363d1d	0.0027807422
9	0x3da2b673	0.07944956
10	0x3db6c988	0.08925158
11	0xbde8825f	-0.11352991
12	0xbde7d464	-0.11319807
13	0xbe2435bf	-0.16036128
14	0xbea7366f	-0.32658717
15	0x3d8f45c1	0.069957264
16	0xbe30aeb6	-0.17254147
17	0x3ebed970	0.37275267
18	0x3e872856	0.2639796
19	0x3e35d1da	0.17755833
20	0xbeabb74e	-0.33538288
21	0x3c889f8d	0.016677642
22	0xbe64b542	-0.2233477
23	0xbe571e25	-0.21007593
24	0x3e96e9ff	0.294754
25	0x3e951da3	0.29124174
26	0x3eb2b417	0.34903023
27	0xbd2cf5f9	-0.042226765
28	0xbe2e3bc9	-0.17014994
29	0x3ebab6d0	0.364676
30	0x3ec2e2d0	0.3806367
31	0x3e15369b	0.14571612
32	0x3eaeac23	0.34115705
33	0xbe846468	-0.25857854
34	0x3dec1c01	0.11528779
35	0x3e848b10	0.25887346
36	0x3ca99e8f	0.02070549
37	0xbe9b4af7	-0.3033063
38	0xbe825f8d	-0.25463524
39	0xbed98205	-0.4248201
40	0xbd8bd6e9	-0.068281
41	0xbe4b9aa6	-0.19883212
42	0x3e2f609b	0.17126696
43	0xbdd27910	-0.10276997
44	0x3e39b3b5	0.18134959
45	0x3cf2d52b	0.029642662
46	0xbe6a7e84	-0.22899824
47	0xbe524d3b	-0.20537274
48	0x3d361f02	0.044463165
49	0xbeb40f6b	-0.35168013
50	0x3e161741	0.14657308
51	0x3ede8956	0.43464154
52	0x3e2c7af2	0.16843775
53	0xbd5e3a33	-0.05425472
54	0xbe9cc8d1	-0.3062196
55	0x3cc3cc7d	0.023901219
56	0xbeca3d61	-0.39499953
57	0x3e4c4214	0.19947082
58	0xbe0d06e0	-0.13772154
59	0xbe2a4ce8	-0.166309
60	0xbe068403	-0.13136296
61	0x3dc0ce67	0.09414368
62	0x3d971d8d	0.07378683
63	0xbc0717d4	-0.008245427

encoder.2.weight f4 [32, 64]
0	0x3d1bd243	0.038042318
1	0x3cd858b8	0.026409492
2	0x3e078e91	0.13237979
3	0x3dbaa2ca	0.09113081
4	0x3d8ecd48	0.06972748
5	0xbdbbbee5	-0.091672696
6	0x3de486b6	0.111585066
7	0xbdc976b9	-0.09837098
8	0xbd379f46	-0.04482963
9	0x3c2708a3	0.01019493
10	0x3d07294e	0.032998376
11	0x3c6ff6e5	0.014646267
12	0xbdacc223	-0.08435466
13	0x3c1cae41	0.00956303
14	0x3d9b16ca	0.07572706
15	0x3c906393	0.017625606
16	0x3dc52678	0.09626478
17	0x3c6255f4	0.013814438
18	0x3db44f12	0.08804144
19	0xbc800470	-0.015627116
20	0xbdc11f70	-0.09429824
21	0x3d719646	0.058981203
22	0xbd749a53	-0.059717488
23	0x3e1311ae	0.14362213
24	0x3e0b689d	0.13614126
25	0x3d5341f4	0.05157657
26	0x3d2ebc5a	0.042660095
27	0xbd4b7f29	-0.049681816
28	0x3d2ac48c	0.041691348
29	0xb9967bd3	-0.00028702486
30	0x3d82c4e5	0.06385211
31	0x3e2457cd	0.16049118
32	0x3de8deb6	0.11370604
33	0x3dfcf367	0.12351113
34	0xbc95bf5f	-0.01827973
35	0xbd49f0bc	-0.049301848
36	0xbad9d140	-0.0016618147
37	0x3da90b77	0.0825414
38	0x3d9de524	0.07709721
39	0x3deff9aa	0.117175415
40	0x3d5dbac8	0.054133207
41	0x3de0827f	0.1096239
42	0x3dd6a2d4	0.10480276
43	0xbd4b26d2	-0.04959757
44	0x3dc34aba	0.09535737
45	0xbdc0470b	-0.0938855
46	0x3d983f59	0.074339576
47	0xbc92972c	-0.01789435
48	0xbd666ac8	-0.05625418
49	0x3d8d1880	0.06889439
50	0xbdae5911	-0.08513082
51	0x3e206804	0.15664679
52	0x3c951cde	0.018202242
53	0xbc91d9aa	-0.017803986
54	0xbe0eb773	-0.13937168
55	0x3d72f09f	0.059311505
56	0xbbe405ff	-0.0069587226
57	0xbdc2bbc0	-0.09508467
58	0x3dd1f5a8	0.10251933
59	0x3c0a6abd	0.0084483
60	0x3dfeca4a	0.12440927
61	0x3d9ce401	0.07660676
62	0xbc83a9a6	-0.016072106
63	0x3c8a50b5	0.016884187
64	0xbd59181f	-0.05300152
65	0x3e0fcfb0	0.1404407
66	0x3dda158d	0.10648642
67	0xbd735eb2	-0.05941648
68	0x3d80f7a2	0.06297232
69	0x3cefed7f	0.029288052
70	0x3c6a14c4	0.0142871775
71	0x3df9a12c	0.12188944
72	0x3e0ab2ec	0.13544816
73	0xbe05515c	-0.13019317
74	0xbd1e9c3b	-0.03872321
75	0x3e1f80fc	0.15576547
76	0xbd6189a5	-0.05506291
77	0x3cf3dabd	0.029767388
78	0x3dec807f	0.11547946
79	0xbda9c6c3	-0.08289864
80	0xbd20732c	-0.039172336
81	0x3e1369f8	0.14395893
82	0x3e0d7692	0.13814762
83	0x3d83d262	0.06436612
84	0x3dc66528	0.09687263
85	0x3df5c026	0.1199954
86	0xbd76fc3e	-0.06029915
87	0x3cf830dd	0.030296737
88	0xbca2fe26	-0.019896578
89	0xbc90b3a8	-0.017663792
90	0xbc8bd086	-0.017067205
91	0xbd3a3aba	-0.045466162
92	0x3df6ed79	0.12057013
93	0xbb367d93	-0.0027845844
94	0x3e30e189	0.17273535
95	0x3d3c1286	0.045916103
96	0x3ca73777	0.02041219
97	0xbddb16f2	-0.10697736
98	0x3d81afd0	0.06332362
99	0xbd233ad1	-0.039851014
100	0x3d5c07eb	0.05371849
101	0x3ddb2702	0.107007995
102	0x3d65f962	0.056146033
103	0xbd9360e3	-0.07196214
104	0x3e20ca40	0.15702152
105	0xbde0eee3	-0.10983064
106	0x3deed8a5	0.116624154
107	0x3dbf971e	0.09354995
108	0x3dc6eac4	0.09712747
109	0xbdad2d01	-0.084558494
110	0xbdf526f7	-0.119703226
111	0x3c91384e	0.017727043
112	0x3dc0ea12	0.09419645
113	0xbd5490ec	-0.05189602
114	0xbda17ad4	-0.07884756
115	0xbd14c044	-0.03631617
116	0xbddacf2a	-0.10684045
117	0xbe225ec4	-0.15856463
118	0x3c5d9866	0.013525104
119	0xbd3d5642	-0.04622484
120	0xbde4059a	-0.11133881
121	0x3d741043	0.05958582
122	0xbd1c0f76	-0.038100682
123	0x3d7d8da8	0.061902672
124	0xba91932f	-0.0011106486
125	0xbb017af3	-0.0019757121
126	0xbcbfa528	-0.023394182
127	0x3d941418	0.07230395
128	0x3dc0f76a	0.094221905
129	0xbd1f9dde	-0.038968913
130	0x3daf84dd	0.085702635
131	0x3d88d383	0.06680968
132	0xbcdd7c8e	-0.027036931
133	0x3ce0191e	0.027355727
134	0x3b3bb6ae	0.002864282
135	0x3daacafe	0.08339499
136	0xbda276a3	-0.079327844
137	0xbc619295	-0.013767858
138	0xbbbe327a	-0.005804357
139	0xbbcad13a	-0.0061894925
140	0x3e153a95	0.14573129
141	0xbd230284	-0.03979732
142	0x3dd7cce4	0.10537127
143	0x3de3b433	0.11118355
144	0x3c8221a0	0.015885174
145	0x3cb5b424	0.022180624
146	0x3da04b42	0.07826854
147	0xbdb06449	-0.08612878
148	0xbd54c39f	-0.05194437
149	0xbe252494	-0.16127235
150	0xbca2aac3	-0.019856816
151	0x3d4df5e6	0.050283335
152	0x3dce8980	0.1008482
153	0x3ca3f7e3	0.020015663
154	0x3ce8c2af	0.028413145
155	0xbc8e6811	-0.017383607
156	0x3d86d13b	0.06582876
157	0x3d957b46	0.07298903
158	0x3d4a7582	0.04942847
159	0x3d991363	0.07474401
160	0x3de38072	0.111084834
161	0x3df5960d	0.119915105
162	0x3e22d494	0.15901405
163	0xbd494fc2	-0.04914833
164	0x3e0bcf6c	0.13653344
165	0x3d1e073e	0.038581125
166	0xbe0490d6	-0.12945876
167	0xbc703a7f	-0.014662384
168	0xbd8dbd4a	-0.0692087
169	0x3db5df50	0.08880484
170	0xbd2cffc1	-0.042236093
171	0xbde0f992	-0.10985102
172	0xbd6b4c51	-0.057445828
173	0x3d9851e6	0.07437496
174	0x3d01b3d2	0.03166563
175	0xbd470df6	-0.0485973
176	0x3d6591c4	0.056047216
177	0x3db7da98	0.0897724
178	0xbe194050	-0.1496594
179	0xbd05c5bc	-0.032659277
180	0x3e1b251f	0.1515088
181	0x3d4d3a21	0.050104264
182	0x3dcd964a	0.10038431
183	0xbe040b53	-0.12894945
184	0x3dfe5042	0.12417652
185	0x3e17a541	0.14809133
186	0xbdfe79a0	-0.12425542
187	0x3d430784	0.04761459
188	0x3c8ca0de	0.017166551
189	0x3d301da9	0.042997036
190	0x3c6b96b5	0.014379193
191	0x3da92a21	0.082599886
192	0xbd8065e0	-0.06269431
193	0xbd1e6c97	-0.038677778
194	0x3e1d5199	0.15363158
195	0x396a2ed0	0.00022333418
196	0x3dd43393	0.103613995
197	0xbd64c5cc	-0.055852696
198	0x3e088229	0.13330902
199	0x3ddbbff1	0.10729969
200	0x3e13eb83	0.1444531
201	0xbdd57c25	-0.10424069
202	0xbd91534b	-0.07095965
203	0x3d6aa182	0.057282932
204	0x3e0e6f6e	0.13909695
205	0x3e21f024	0.15814263
206	0xbe25b99b	-0.16184084
207	0xbc01b77a	-0.007917279
208	0x3dd238b0	0.102647185
209	0x3c49892a	0.012300769
210	0x3da1ade8	0.07894498
211	0x3bad10fd	0.005281566
212	0x3de05f65	0.10955695
213	0xbd9a3a75	-0.07530681
214	0x3d87b0b2	0.06625499
215	0x3e10404a	0.14087024
216	0xbc9f77bd	-0.019466275
217	0xbdf5b994	-0.11998287
218	0x3e028dc9	0.12749399
219	0x3df81e21	0.12115122
220	0x3c0f677b	0.008752699
221	0x3b4da583	0.003137917
222	0x3b8027f0	0.003911011
223	0xbd019391	-0.03163487
224	0x3dfa274f	0.12214529
225	0x3c47da7c	0.012198087
226	0x3d669b2f	0.05630034
227	0x3df76ae7	0.12080937
228	0xbbf3e2a1	-0.0074427878
229	0xbccb661f	-0.024828969
230	0x3c3e0c59	0.011599624
231	0xbcc24cff	-0.023718355
232	0xbdafc795	-0.08582989
233	0x3dcd47a2	0.100234285
234	0xbd90e449	-0.07074792
235	0x3dea9a3a	0.11455198
236	0x3e25e003	0.16198735
237	0xbd23c4a9	-0.03998247
238	0x3cbeb524	0.023279734
239	0x3e205cf5	0.1566046
240	0xbda0b5fe	-0.07847212
241	0xbd070ecc	-0.032973096
242	0xbd1648a7	-0.03669038
243	0xbd8746e1	-0.06605316
244	0x3d48ee9a	0.049055673
245	0x3cf5fae3	0.030026859
246	0xbd9a4c9f	-0.075341456
247	0xbd9c57e4	-0.07633951
248	0xbd415038	-0.047195643
249	0xbd5b0688	-0.053473026
250	0xbaf65f18	-0.0018796651
251	0x3d638c0d	0.055553485
252	0xbd63ba30	-0.055597484
253	0xbdf5e091	-0.12005723
254	0x3cf46257	0.029832048
255	0x3e08f344	0.13374048

encoder.2.bias f4 [32]
0	0x3cc4f2a4	0.024041481
1	0xbc56131b	-0.013066079
2	0x3e042e72	0.12908342
3	0x3dab9307	0.083776526
4	0xbcd97d29	-0.026548939
5	0x3cc27d6a	0.023741443
6	0xbacb24cf	-0.0015498641
7	0x3dbad9ed	0.09123597
8	0xbd013e9e	-0.031553857
9	0x3ca61aaf	0.020276396
10	0xbdc1c454	-0.09461275
11	0x3e2448e6	0.16043434
12	0xbd95ab5d	-0.073080756
13	0xbde99c0a	-0.11406715
14	0x3c42c6a4	0.01188818
15	0x3e165ee5	0.14684637
16	0xbd7763df	-0.06039798
17	0xbd348239	-0.044069503
18	0xbcd5e2ae	-0.026109066
19	0x3e037a75	0.12839682
20	0x3dcacf3f	0.0990281
21	0xbdd11496	-0.102090046
22	0xbd51a245	-0.051180143
23	0x3d43689d	0.04770719
24	0xbc933000	-0.017967224
25	0x3e17d2e6	0.14826545
26	0xbcd98bbf	-0.026555894
27	0xbccc1ea8	-0.024916962
28	0xbdeafad5	-0.11473624
29	0xbcec3276	-0.028832655
30	0x3dc28644	0.094982654
31	0xbde7ef94	-0.11324993

decoder.0.weight f4 [64, 32]
0	0x3e13906b	0.1441056
1	0xbdc1cbf3	-0.09462728
2	0xbd918153	-0.07104745
3	0xbd8d318b	-0.06894215
4	0xbc41a8f0	-0.011820063
5	0x3ce4b450	0.027918011
6	0xbe0c3e80	-0.13695717
7	0x3c83f5b8	0.016108379
8	0x3d4b5814	0.049644545
9	0xbe285374	-0.16438085
10	0xbe155118	-0.14581716
11	0x3d9715d6	0.07377212
12	0xbcbd3de0	-0.023100793
13	0x3da8a0ca	0.08233793
14	0x3d9c226e	0.076237544
15	0xbdf7a984	-0.120928794
16	0xbd020c8c	-0.031750247
17	0xbccec910	-0.025242358
18	0x3db65a46	0.08903937
19	0x3d723378	0.059131116
20	0xbd7ea268	-0.0621666
21	0x3e00cee5	0.12578924
22	0xbd9d094c	-0.07667789
23	0x3d8c7858	0.06858891
24	0xbdfbd958	-0.122973144
25	0xbe173006	-0.14764413
26	0xbd943310	-0.07236302
27	0x3df5d94a	0.12004335
28	0x3e28a5e1	0.16469528
29	0x3e01f103	0.12689595
30	0xbdd14838	-0.10218853
31	0xbe227024	-0.15863091
32	0xbe07ee3e	-0.13274476
33	0x3dec98c8	0.11552578
34	0xbc20bf47	-0.009811229
35	0x3d953ae3	0.072866224
36	0xbe32c02f	-0.17456125
37	0x3e37a841	0.17935278
38	0x3ddb8120	0.10717988
39	0x3cb13928	0.0216337
40	0xbe0bb200	-0.1364212
41	0xbdedb910	-0.116075635
42	0x3e2daa65	0.16959532
43	0x3cb98316	0.022645514
44	0x3e13629d	0.14393087
45	0xbd96c829	-0.07362396
46	0x3daf8a64	0.08571318
47	0xbc38c4ff	-0.011277436
48	0x3b57054a	0.003280955
49	0x3dec7176	0.115450785
50	0xbd124d01	-0.035717968
51	0xbd28b131	-0.041184608
52	0x3e5b78d3	0.2143281
53	0x3e052851	0.1300366
54	0xbd9a98aa	-0.075486496
55	0x3e0619ce	0.13095781
56	0xbdfac00e	-0.12243663
57	0xbe43ab6f	-0.19108365
58	0x3e2a624c	0.1663906
59	0xbdb6934d	-0.08914814
60	0x3e19633d	0.14979263
61	0x3e057ad1	0.13035132
62	0x3d70d785	0.058799285
63	0xbd67ec0c	-0.056621596
64	0xbcc712eb	-0.024301013
65	0xbd52a255	-0.051424343
66	0xbda72101	-0.08160592
67	0xbe0d988c	-0.13827723
68	0x3b2a66c0	0.0026001185
69	0xbde2567a	-0.1105165
70	0x3d8b9fcc	0.06817588
71	0xbe46c3bb	-0.19410603
72	0xbdc2381f	-0.094833605
73	0x3dc9aa37	0.09846919
74	0xbdb5d386	-0.088782355
75	0xbe2a3a83	-0.16623883
76	0x3d3afbbe	0.045650236
77	0xbd8efd26	-0.06981878
78	0x3de9ee29	0.114223786
79	0x3c431301	0.011906386
80	0xbd44c214	-0.04803665
81	0x3d93f744	0.072248966
82	0xbd26631e	-0.04062187
83	0x3c635e86	0.013877517
84	0x3d9ee55f	0.07758593
85	0xbe0906a2	-0.13381436
86	0xbd54e94c	-0.0519803
87	0x3e16cc30	0.14726329
88	0x3c770ef5	0.01507925
89	0xbe24776d	-0.16061182
90	0x3dc62f46	0.096769854
91	0x3e080fa5	0.13287218
92	0xbe1b3f95	-0.15160973
93	0x3dfda567	0.123850636
94	0xbc3d5e2c	-0.011558097
95	0x3d6f125c	0.05836712
96	0xba65792a	-0.00087537116
97	0xbdf1313d	-0.117769696
98	0x3e29b582	0.16573146
99	0xbbc3e064	-0.005977677
100	0xbdf2514f	-0.11831915
101	0x3cfab30d	0.030602956
102	0xbca015ba	-0.01954161
103	0x3da5d76a	0.080977276
104	0x3d9873b0	0.07443941
105	0xbd9342d1	-0.071904786
106	0xbdfdc454	-0.12390962
107	0xbd7b160c	-0.061300322
108	0x3e5e0bb0	0.21684146
109	0xbe0b6647	-0.13613234
110	0x3e50d71c	0.20394558
111	0x3d5a3777	0.05327555
112	0x3ddc1b2d	0.10747371
113	0x3ba7102f	0.005098365
114	0xbc4e8365	-0.012604569
115	0x3e31ec13	0.17375211
116	0xbd63572f	-0.055503067
117	0x3dee811e	0.11645721
118	0x3e2454ab	0.16047923
119	0xbc0b0e4a	-0.0084872935
120	0x3ddef782	0.10887052
121	0xbe2045c7	-0.15651618
122	0x3ceebea1	0.029143633
123	0xbdfb4b1e	-0.12270187
124	0xbe2c04f3	-0.16798763
125	0x3e4526c7	0.19253074
126	0x3c5f004c	0.013610911
127	0xbd90a9de	-0.070636496
128	0x3db65936	0.089037344
129	0x3db5dccb	0.088800035
130	0xbd7a3228	-0.06108299
131	0x3d937023	0.07199123
132	0xbdd9f4e8	-0.10642415
133	0xbd9c54c6	-0.07633357
134	0x3df9047e	0.1215906
135	0xbd608c05	-0.054821033
136	0x3dbe04e2	0.09278275
137	0xbd6a2061	-0.057159785
138	0xbdc5733b	-0.09641119
139	0x3d9a6ad8	0.0753991
140	0xbdd67565	-0.1047161
141	0xbd94f579	-0.07273383
142	0xbe1598ef	-0.14609121
143	0xbd0452be	-0.03230547
144	0x3d37e169	0.044892702
145	0xbdfc870b	-0.12330445
146	0x3e1f6b35	0.1556824
147	0x3de95f48	0.113951266
148	0xbd501f8e	-0.050811343
149	0xbdceefc1	-0.10104323
150	0x3e513ff6	0.20434555
151	0x3ceb915a	0.028755832
152	0x3e0b180a	0.13583389
153	0x3df3b0cc	0.11898956
154	0x3e0560e7	0.13025247
155	0xbc4d39ab	-0.012525956
156	0x3df9f3a6	0.122046754
157	0xbde1ce37	-0.110256605
158	0xbe2f976c	-0.17147607
159	0xbc561860	-0.013067335
160	0x3da1ad8c	0.078944296
161	0x3d22ef1a	0.039778806
162	0xbdbfd33c	-0.09366462
163	0x3d7481f2	0.059694238
164	0x3e3ba408	0.18324292
165	0xbd88c156	-0.06677501
166	0x3d8d3ac3	0.068959735
167	0xbdda2543	-0.10651638
168	0x3d7eeb1e	0.062235944
169	0xbdeb1bf9	-0.11479945
170	0xbdec52cc	-0.1153923
171	0x3e32d8c0	0.17465496
172	0xbc77db37	-0.0151279485
173	0xbd5cc884	-0.053902164
174	0xbe1cb7d3	-0.15304498
175	0xbd103512	-0.03520686
176	0x3d877072	0.06613244
177	0xbe2c6653	-0.16835909
178	0x3df9bb21	0.12193895
179	0x3dbee87d	0.09321687
180	0xbe106369	-0.14100422
181	0xbdc24628	-0.094860375
182	0xbdaf7eb4	-0.085690886
183	0x3d681b3f	0.05666661
184	0x3e02a0dc	0.12756675
185	0x3e1d44d4	0.15358287
186	0xbdf90d9c	-0.12160799
187	0xbde23ea8	-0.11047107
188	0xbde33584	-0.11094192
189	0x3d37b44c	0.04484968
190	0xbcdf664c	-0.027270459
191	0xbe1c1fdd	-0.1524653
192	0x3e4786a7	0.1948496
193	0x3d28d2db	0.041216712
194	0x3e5ee2b3	0.21766166
195	0xbdb8b683	-0.09019186
196	0xbe444ad4	-0.1916917
197	0xbd507554	-0.050893143
198	0x3dc39bea	0.095512226
199	0x3d926c7e	0.071495995
200	0x3e0fdbbc	0.14048666
201	0x3dd19511	0.1023351
202	0x3da7be02	0.08190538
203	0xbc84a4fb	-0.01619195
204	0x3e4b5e6b	0.19860236
205	0x3e2e0ce9	0.16997112
206	0x3e1badea	0.15203062
207	0xbdcbb730	-0.099470496
208	0x3e090c21	0.13383533
209	0x3dd0f31a	0.10202618
210	0xbe47cec8	-0.19512475
211	0x3db5d10d	0.08877764
212	0x3e256a50	0.16153836
213	0x3dbf1212	0.093296185
214	0x3d3dbf06	0.046324752
215	0xbcbc2d8f	-0.022970943
216	0x3cac3992	0.021023545
217	0xbe168e13	-0.14702635
218	0x3dbbde2b	0.091732346
219	0xbe15b867	-0.14621125
220	0xbd1a21c4	-0.037629858
221	0x3cdd2d6f	0.026999203
222	0xbdc42c4d	-0.09578762
223	0x3c8407a8	0.016116932
224	0x3e3be11c	0.18347591
225	0x3da5e146	0.08099608
226	0xbc2d74d9	-0.010586941
227	0xbd5a7072	-0.053329892
228	0x3d081f1e	0.0332328
229	0xbcead861	-0.02866763
230	0x3cd36cb5	0.025808671
231	0xbe1a0145	-0.15039547
232	0xbdb8aa49	-0.09016854
233	0xbe3b8cc5	-0.18315418
234	0xbe2690fe	-0.16266248
235	0xbd473b99	-0.04864082
236	0x3e577212	0.21039608
237	0x3d632e10	0.05546385
238	0xbd9696d1	-0.07352985
239	0x3e2d792d	0.16940756
240	0xbe03d260	-0.1287322
241	0x3e0f1ac7	0.13975058
242	0xbde0574a	-0.10954149
243	0xbdcdf1c4	-0.10055879
244	0xbe39f22e	-0.1815879
245	0x3d8634f6	0.0655307
246	0xbbfbc2c9	-0.0076831323
247	0xbda8fe91	-0.0825168
248	0x3dcd6e65	0.10030822
249	0x3e4234db	0.18965475
250	0x3d90c183	0.070681594
251	0x3e1db45a	0.1540083
252	0xbd3d9b12	-0.046290465
253	0x3df84131	0.12121809
254	0x3bdbc055	0.0067062774
255	0xbd8996bc	-0.067182034

decoder.0.bias f4 [64]
0	0xbe0b2ce0	-0.13591337
1	0xbd1149ad	-0.035470653
2	0xbc959cac	-0.018263184
3	0x3de99b38	0.11406559
4	0x3c1df3c9	0.009640642
5	0x3e17c7f3	0.14822368
6	0xbdfa433b	-0.122198544
7	0x3de44507	0.111459784
8	0xbd601d67	-0.05471554
9	0xbe19efc0	-0.15032864
10	0x3e45ee36	0.19329152
11	0x3d79782b	0.060905617
12	0xbd77a68e	-0.060461573
13	0xbd8f7d3f	-0.07006311
14	0x3bfd1ae9	0.007724155
15	0x3c876731	0.016528698
16	0x3e488425	0.19581659
17	0xbde4af1a	-0.111662105
18	0xbdab8a07	-0.08375936
19	0x3e1bc89e	0.15213248
20	0xbd9bdea1	-0.076108225
21	0x3e084214	0.13306457
22	0xbe1d051a	-0.15333977
23	0x3e02bfed	0.12768526
24	0x3e1f6f6a	0.15569845
25	0x3cbce95e	0.023060497
26	0x3d075afa	0.033045746
27	0xbda48a33	-0.08034172
28	0x3e260492	0.16212681
29	0xbd8914f2	-0.06693448
30	0x3e150dee	0.14556095
31	0xbb7e7aea	-0.0038830587
32	0x3be280ef	0.0069123427
33	0xbd95db71	-0.07317246
34	0xbdd37661	-0.10325313
35	0xbcb33f00	-0.021880627
36	0xbd800978	-0.06251806
37	0xbcfa2307	-0.03053428
38	0xbd1e415c	-0.03863655
39	0x3dff1d2f	0.12456738
40	0x3dccd6cd	0.100019075
41	0x3e21cd39	0.15800942
42	0xbe200c49	-0.15629686
43	0x3d15c064	0.03656043
44	0xbda0a973	-0.0784482
45	0xbdb2b6fc	-0.08726308
46	0x3c935de3	0.017989105
47	0x3e10febd	0.14159675
48	0xbd906e70	-0.07052314
49	0x3cda1c38	0.026624784
50	0x3db12a3e	0.08650635
51	0xbd13172c	-0.03591077
52	0x3e1097d6	0.14120421
53	0xbd6674a1	-0.05626357
54	0xbd8eaa76	-0.069661066
55	0x3e231752	0.15926865
56	0x3cad7988	0.021176115
57	0x3debea2e	0.115192756
58	0x3bf97c5a	0.007613701
59	0x3d6bdc05	0.057582874
60	0xbd6ed60c	-0.0583096
61	0xbd080534	-0.033208087
62	0x3e510bb8	0.20414627
63	0xbe0be0a5	-0.13659914

decoder.2.weight f4 [6, 64]
0	0xbc9fa7d0	-0.019489199
1	0xbcde4228	-0.027131155
2	0x3dbed726	0.0931838
3	0xbdb3784c	-0.08763179
4	0x3e2e5ba1	0.17027141
5	0x3db7dab6	0.08977263
6	0xbc9d3a33	-0.01919279
7	0x3e2a6389	0.16639532
8	0xbd779835	-0.06044789
9	0x3dd1578e	0.10221778
10	0x3d5699b3	0.052392673
11	0xbe37a97a	-0.17935744
12	0xbcaf89fb	-0.021428099
13	0x3dac65fe	0.08417891
14	0xbe0c5a51	-0.13706328
15	0x3e2417e9	0.16024746
16	0xbd7485a4	-0.059697762
17	0x3d35d67a	0.044393994
18	0x3dc8e45e	0.098091826
19	0x3da269ef	0.079303615
20	0xbe023c69	-0.12718357
21	0xbe383fc1	-0.1799307
22	0x3daa719c	0.083224505
23	0x3db4b2c3	0.088231586
24	0x3e2f6bcf	0.1713097
25	0x3e31d231	0.17365338
26	0xbd37683c	-0.04477714
27	0x3c94a624	0.018145628
28	0xbd45d418	-0.04829797
29	0xbd5b5b98	-0.053554147
30	0xbdd074e6	-0.101785466
31	0x3d78af50	0.060714066
32	0x3d4adc65	0.04952659
33	0x3cd6a361	0.026200952
34	0x3d0b9b7c	0.03408383
35	0xbda964da	-0.08271189
36	0xbd9ece2c	-0.07754168
37	0x3d9f85af	0.0778917
38	0x3d34867e	0.044073574
39	0xbe11f433	-0.14253311
40	0xbded11b8	-0.11575645
41	0xbe0b9630	-0.1363151
42	0xbd68172c	-0.056662723
43	0x3e2d82cf	0.16944431
44	0x3be88913	0.0070964186
45	0x3ddd6b7c	0.10811517
46	0xbdebd1a9	-0.11514599
47	0x3e12fd44	0.14354426
48	0xbde87532	-0.11350478
49	0xbd463936	-0.048394404
50	0xbde59585	-0.11210159
51	0xbd9c2f6b	-0.07626232
52	0xbd4eed73	-0.050519418
53	0x3dd0346f	0.10166251
54	0x3d18669c	0.03720723
55	0x3d6717ac	0.05641906
56	0x3de1a99e	0.1101868
57	0xbde957f4	-0.11393729
58	0x3c7a1bbf	0.015265404
59	0x3db525a5	0.08845071
60	0x3d66e853	0.056373905
61	0xbdd26d3d	-0.10274742
62	0x3d879480	0.06620121
63	0x3e15635b	0.14588682
64	0xbdd319ae	-0.103076324
65	0x3e0f4131	0.13989712
66	0xbc97471e	-0.018466529
67	0x3db0d3d2	0.086341515
68	0xbd50ec88	-0.051006824
69	0xbdb05717	-0.08610361
70	0x3dc5331e	0.096288905
71	0x3dbc8063	0.09204175
72	0x3dfec155	0.12439219
73	0xbd473310	-0.04863268
74	0xbd1c3ef4	-0.038145974
75	0x3ddc884e	0.107681856
76	0xbddf12e4	-0.10892275
77	0xbde099a3	-0.10966804
78	0xbdd38866	-0.1032875
79	0xbcd05cbf	-0.02543485
80	0x3e3297fe	0.17440793
81	0x3dd95dfc	0.10613629
82	0x3e0efe4e	0.13964197
83	0xbdf9e10d	-0.12201128
84	0xbd87c85b	-0.06630012
85	0xbe04ed02	-0.12981036
86	0x3db6cdf6	0.08926003
87	0x3dc0e4d8	0.094186485
88	0xbc569434	-0.013096858
89	0xbe0ac0c2	-0.13550094
90	0x3df50fd0	0.119659066
91	0xbe29710a	-0.16547027
92	0xbe119f01	-0.14220811
93	0x3df37252	0.11887039
94	0x3e28675d	0.1644568
95	0x3d8bb88e	0.068223104
96	0xbe007937	-0.1254624
97	0x3dee2435	0.11628
98	0xbd85b89f	-0.06529354
99	0xbdcdb70a	-0.100446776
100	0x3da1e8c8	0.079057276
101	0x3c19de0e	0.009391321
102	0x3db43d29	0.08800728
103	0x3e1a5563	0.15071635
104	0x3e2c9d74	0.16856939
105	0xbe1703ec	-0.1474759
106	0x3d38dbf4	0.04513164
107	0xbd442c6b	-0.047893923
108	0xbd8c9e77	-0.06866162
109	0xbd09b5ed	-0.033620764
110	0x3e18ca93	0.14921026
111	0xbcb0cffd	-0.021583552
112	0x3b0ace40	0.0021180063
113	0x3d1ab907	0.037774112
114	0x3e188969	0.14896168
115	0xbd5cfa34	-0.05394955
116	0x3e04d161	0.12970497
117	0x3d7d7051	0.06187469
118	0x3ce32a18	0.027730033
119	0xbe30ee65	-0.1727844
120	0x3d5370f8	0.051621407
121	0xbb9b87a3	-0.0047463938
122	0x3e2edd85	0.1707669
123	0xbd1a9db8	-0.03774807
124	0xbdb62f7e	-0.08895777
125	0x3d071c01	0.03298569
126	0xbdb86433	-0.090034865
127	0x3de35cb8	0.11101669
128	0xbd4ee284	-0.05050899
129	0x3d4988c3	0.04920269
130	0xbd5c409a	-0.053772546
131	0x3e22a999	0.15885009
132	0xbd25c9a7	-0.040475514
133	0x3cbf03a4	0.023317166
134	0x3d2d102c	0.04225175
135	0xbdd06493	-0.10175433
136	0xbd77cd94	-0.06049879
137	0xbd1784d8	-0.036991924
138	0x3dc8ac36	0.09798472
139	0x3c2f890c	0.010713827
140	0x3e0b3958	0.13596094
141	0x3dd2a72f	0.10285794
142	0xbd2bdd19	-0.041958902
143	0xbcabf0a4	-0.02098877
144	0xbbe45b56	-0.006968896
145	0x3d12d655	0.035848934
146	0x3dbaec1e	0.09127067
147	0x3e230bdf	0.15922497
148	0xbdc4646e	-0.09589468
149	0x3e2df035	0.16986163
150	0x3add3c80	0.0016878992
151	0x3cdb3ea9	0.026763277
152	0x3c87709e	0.016533192
153	0x3e0c41be	0.13696954
154	0x3e058480	0.13038826
155	0xbdad9f99	-0.084777065
156	0xbd2b61eb	-0.04184143
157	0x3d1f47fc	0.03888701
158	0xbd8d7739	-0.069075055
159	0xbd66077b	-0.056159478
160	0x3db7afe1	0.08969093
161	0x3d6cedf0	0.057844102
162	0xbddef3c9	-0.10886342
163	0xbdc1fd02	-0.094720855
164	0x3d0303b8	0.03198597
165	0xbd9cb6e8	-0.07652074
166	0xbde467d3	-0.111526154
167	0xbce195dc	-0.027537279
168	0xbd6564b2	-0.056004234
169	0x3e03eba9	0.12882866
170	0xbdb6c728	-0.08924705
171	0x3d9a7cf3	0.075433634
172	0xbdaed124	-0.08535984
173	0x3d45c648	0.0482848
174	0xbd4356e1	-0.047690276
175	0x3dc4ae6b	0.0960358
176	0xbc8dc340	-0.017305017
177	0x3dd597a9	0.104293175
178	0x3c1e09b2	0.009645866
179	0x3d8bb69e	0.06821941
180	0xbdced91e	-0.101000056
181	0xbd9c9ef5	-0.07647506
182	0xbda8a0c6	-0.0823379
183	0xbcbd5f71	-0.0231168
184	0xbd891410	-0.0669328
185	0x3b9e7bb4	0.004836524
186	0x3e03e94e	0.12881967
187	0x3df70794	0.12061992
188	0xbd3021a9	-0.04300085
189	0x3d0c8cdf	0.034314033
190	0x3d0594a5	0.03261246
191	0x3d5d0687	0.053961303
192	0xbdd8edc0	-0.10592222
193	0xbe27e533	-0.16396026
194	0xbd895746	-0.06706099
195	0xbd99c486	-0.07508187
196	0x3c98c826	0.018650126
197	0xbdde5a6d	-0.10857091
198	0x3d0d0244	0.03442599
199	0xbd48bb6e	-0.049006872
200	0xbd989410	-0.07450116
201	0xbdea738e	-0.114478216
202	0xbbe4e29c	-0.0069850218
203	0x3bd2fdfc	0.0064389687
204	0xbe117260	-0.14203787
205	0xbd35d237	-0.04438993
206	0x3d8f76aa	0.07005055
207	0xbce2fc9d	-0.027708346
208	0x3d821425	0.063514985
209	0x3dbef291	0.093236096
210	0xbcb8107b	-0.022468796
211	0x3d97ddad	0.07415328
212	0xbde9a31d	-0.114080645
213	0xbe01748c	-0.12642115
214	0xbd02c7d8	-0.031928867
215	0x3db3ae53	0.08773484
216	0x3cb09ce2	0.021559183
217	0x3d591959	0.05300269
218	0x3e069f78	0.1314677
219	0x3c2c88e4	0.010530684
220	0x39dbdbe5	0.0004193477
221	0xbddf93e6	-0.10916881
222	0x3db3a023	0.08770778
223	0x3d91d2c5	0.07120279
224	0x3b3dfefa	0.002899109
225	0xbd0b37bd	-0.033988703
226	0xbd6b91ff	-0.05751228
227	0x3dd45216	0.10367219
228	0x3d98603c	0.0744023
229	0xbd555014	-0.05207832
230	0xbdeefb57	-0.11669033
231	0xbdd1247d	-0.10212038
232	0x3e071f93	0.13195638
233	0xbdd0cb13	-0.10194983
234	0xbd05a564	-0.032628432
235	0x3e2461bd	0.16052909
236	0xbcfdfe6a	-0.031005103
237	0x3deb1967	0.114794545
238	0x3a765960	0.0009397473
239	0xbddb2e42	-0.10702182
240	0x3ca1de58	0.019759342
241	0x3d9ddc58	0.07708043
242	0xbdd62f68	-0.10458261
243	0xbd88f465	-0.066872396
244	0x3d342f40	0.043990374
245	0x3dafdb7d	0.08586786
246	0x3d06c2cc	0.032900617
247	0xbdfa04b2	-0.12207927
248	0x3d81089c	0.0630047
249	0x3dc7275e	0.097243056
250	0x3c66f70b	0.014096986
251	0x3c3e1751	0.011602239
252	0xba8668fd	-0.0010254678
253	0x3db877e8	0.09007245
254	0x3d3f90f0	0.046769083
255	0x3dcab397	0.09897535

decoder.2.bias f4 [6]
0	0x3d9921a1	0.07477117
1	0xbca0a570	-0.019610137
2	0x3dc4d7ec	0.09611496
3	0x3de66997	0.112506084
4	0x3e0ef332	0.13959959
5	0xbd4d1321	-0.05006707
